src/outputs/model_torch.pt (torch, 2565 bytes, 3 tensors)

model.0.weight f4 [8, 1]
0.3575881 -0.24972105 -0.6499244 -0.16881132 -0.48282194 0.19090533 -0.09748316 0.047043364
00000000: ca15 b73e e0b6 7fbe 7261 26bf e0dc 2cbe
00000010: 7034 f7be b07c 433e 40a5 c7bd 8bb0 403d

model.0.bias f4 [8]
-0.64757097 -0.16054773 -0.94853497 0.5325358 -0.44639945 -1.1220837 -0.9793329 -0.47538093
00000000: 36c7 25bf a066 24be 30d3 72bf 4454 083f
00000010: 788e e4be 70a0 8fbf 90b5 7abf 2165 f3be

model.2.weight f4 [1, 8]
0.09621081 0.20732157 0.28803977 -0.20738445 0.33620963 0.20602593 0.14979562 0.114108235
00000000: 2c0a c53d 1b4c 543e f379 933e 975c 54be
00000010: ab23 ac3e 76f8 523e 0664 193e 94b1 e93d
