outputs/model_torch.pt (torch, 2565 bytes, 3 tensors)

model.0.weight f4 [8, 1]
0.0108440425 -0.19343042 -0.52642846 0.25264806 -0.61119604 -0.26683903 -0.3513224 -0.27921867
00000000: 36ab 313c a012 46be 04c4 06bf 165b 813e
00000010: 5877 1cbf 209f 88be 88e0 b3be c0f5 8ebe

model.0.bias f4 [8]
0.648359 0.3246758 -0.602898 0.28957987 -0.80440545 0.5046065 0.37403965 0.6390768
00000000: dbfa 253f e83b a63e 8657 1abf d043 943e
00000010: 84ed 4dbf e42d 013f 2082 bf3e 8a9a 233f

model.2.weight f4 [1, 8]
-0.0415503 -0.0579606 -0.04319348 0.13427152 0.32497227 -0.054929018 0.06511393 0.23446266
00000000: a630 2abd 1868 6dbd a6eb 30bd 797e 093e
00000010: c462 a63e 40fd 60bd 745a 853d fb16 703e
